…
Test record ids (last 20): ['151541', '135141', '148664', '151895', '137025', '143410', '132799', '160417', '143342', '157915', '143290', '141428', '147807', '145320', '146007', '136354', '153098', '148397', '138869', '145810']
data_max: tensor([… device='cuda:0')
data_min: tensor([ … device='cuda:0')
time_max: tensor(48., device='cuda:0')
model Model(
  (model): ModuleList(
    (0-1): 2 x ScaleGraphBlock(
      (att0): Attention_Block(
        (attention): self_attention(
          (inner_attention): FullAttention(
            (dropout): Dropout(p=0.1, inplace=False)
          )
          (query_projection): Linear(in_features=512, out_features=512, bias=True)
          (key_projection): Linear(in_features=512, out_features=512, bias=True)
          (value_projection): Linear(in_features=512, out_features=512, bias=True)
          (out_projection): Linear(in_features=512, out_features=512, bias=True)
        )
        (conv1): Conv1d(512, 64, kernel_size=(1,), stride=(1,))
        (conv2): Conv1d(64, 512, kernel_size=(1,), stride=(1,))
        (norm1): LayerNorm((512,), eps=1e-05, elementwise_affine=True)
        (norm2): LayerNorm((512,), eps=1e-05, elementwise_affine=True)
        (dropout): Dropout(p=0.1, inplace=False)
      )
      (norm): LayerNorm((512,), eps=1e-05, elementwise_affine=True)
      (gelu): GELU(approximate='none')
      (gconv): ModuleList(
        (0-4): 5 x GraphBlock(
          (start_conv): Conv2d(1, 32, kernel_size=(472, 1), stride=(1, 1))
          (gconv1): mixprop(
            (nconv): nconv()
            (mlp): linear(
              (mlp): Conv2d(96, 32, kernel_size=(1, 1), stride=(1, 1))
            )
          )
          (gelu): GELU(approximate='none')
          (end_conv): Conv2d(32, 128, kernel_size=(1, 128), stride=(1, 1))
          (linear): Linear(in_features=41, out_features=512, bias=True)
          (norm): LayerNorm((512,), eps=1e-05, elementwise_affine=True)
        )
      )
    )
  )
  (enc_embedding): DataEmbedding(
    (value_embedding): TokenEmbedding(
      (tokenConv): Conv1d(41, 512, kernel_size=(3,), stride=(1,), padding=(1,), bias=False, padding_mode=circular)
    )
    (position_embedding): PositionalEmbedding()
    (temporal_embedding): TimeFeatureEmbedding(
      (embed): Linear(in_features=1, out_features=512, bias=False)
    )
    (dropout): Dropout(p=0.1, inplace=False)
  )
  (layer_norm): LayerNorm((512,), eps=1e-05, elementwise_affine=True)
  (projection): Linear(in_features=1, out_features=41, bias=True)
  (te_scale): Linear(in_features=1, out_features=1, bias=True)
  (te_periodic): Linear(in_features=1, out_features=511, bias=True)
  (decoder): Sequential(
    (0): Linear(in_features=1024, out_features=512, bias=True)
    (1): ReLU(inplace=True)
    (2): Linear(in_features=512, out_features=512, bias=True)
    (3): ReLU(inplace=True)
    (4): Linear(in_features=512, out_features=1, bias=True)
  )
)
parameters: 8753243
n_train_batches: 225
Traceback (most recent call last):
  File "/home/jiaxihu/bowenzhang/HPG/tPatchGNN/run_baselines.py", line 439, in <module>
    train_res = compute_all_losses(model, batch_dict)
                ^^^^^^^^^^^^^^^^^^^^^^^^^^^^^^^^^^^^^
  File "/home/jiaxihu/bowenzhang/HPG/lib/evaluation.py", line 331, in compute_all_losses
…
Test record ids (last 20): ['151541', '135141', '148664', '151895', '137025', '143410', '132799', '160417', '143342', '157915', '143290', '141428', '147807', '145320', '146007', '136354', '153098', '148397', '138869', '145810']
data_max: tensor([… device='cuda:0')
data_min: tensor([ … device='cuda:0')
time_max: tensor(48., device='cuda:0')
model Model(
  (model): ModuleList(
    (0-1): 2 x ScaleGraphBlock(
      (att0): Attention_Block(
        (attention): self_attention(
          (inner_attention): FullAttention(
            (dropout): Dropout(p=0.1, inplace=False)
          )
          (query_projection): Linear(in_features=512, out_features=512, bias=True)
          (key_projection): Linear(in_features=512, out_features=512, bias=True)
          (value_projection): Linear(in_features=512, out_features=512, bias=True)
          (out_projection): Linear(in_features=512, out_features=512, bias=True)
        )
        (conv1): Conv1d(512, 64, kernel_size=(1,), stride=(1,))
        (conv2): Conv1d(64, 512, kernel_size=(1,), stride=(1,))
        (norm1): LayerNorm((512,), eps=1e-05, elementwise_affine=True)
        (norm2): LayerNorm((512,), eps=1e-05, elementwise_affine=True)
        (dropout): Dropout(p=0.1, inplace=False)
      )
      (norm): LayerNorm((512,), eps=1e-05, elementwise_affine=True)
      (gelu): GELU(approximate='none')
      (gconv): ModuleList(
        (0-4): 5 x GraphBlock(
          (start_conv): Conv2d(1, 32, kernel_size=(472, 1), stride=(1, 1))
          (gconv1): mixprop(
            (nconv): nconv()
            (mlp): linear(
              (mlp): Conv2d(96, 32, kernel_size=(1, 1), stride=(1, 1))
            )
          )
          (gelu): GELU(approximate='none')
          (end_conv): Conv2d(32, 175, kernel_size=(1, 175), stride=(1, 1))
          (linear): Linear(in_features=41, out_features=512, bias=True)
          (norm): LayerNorm((512,), eps=1e-05, elementwise_affine=True)
        )
      )
    )
  )
  (enc_embedding): DataEmbedding(
    (value_embedding): TokenEmbedding(
      (tokenConv): Conv1d(41, 512, kernel_size=(3,), stride=(1,), padding=(1,), bias=False, padding_mode=circular)
    )
    (position_embedding): PositionalEmbedding()
    (temporal_embedding): TimeFeatureEmbedding(
      (embed): Linear(in_features=1, out_features=512, bias=False)
    )
    (dropout): Dropout(p=0.1, inplace=False)
  )
  (layer_norm): LayerNorm((512,), eps=1e-05, elementwise_affine=True)
  (projection): Linear(in_features=1, out_features=41, bias=True)
  (te_scale): Linear(in_features=1, out_features=1, bias=True)
  (te_periodic): Linear(in_features=1, out_features=511, bias=True)
  (decoder): Sequential(
    (0): Linear(in_features=1024, out_features=512, bias=True)
    (1): ReLU(inplace=True)
    (2): Linear(in_features=512, out_features=512, bias=True)
    (3): ReLU(inplace=True)
    (4): Linear(in_features=512, out_features=1, bias=True)
  )
)
parameters: 13310833
n_train_batches: 225
Traceback (most recent call last):
  File "/home/jiaxihu/bowenzhang/HPG/tPatchGNN/run_baselines.py", line 439, in <module>
    train_res = compute_all_losses(model, batch_dict)
                ^^^^^^^^^^^^^^^^^^^^^^^^^^^^^^^^^^^^^
  File "/home/jiaxihu/bowenzhang/HPG/lib/evaluation.py", line 331, in compute_all_losses
…
