…
Test record ids (first 20): ['141035', '147605', '135375', '161896', '139505', '162915', '146059', '161471', '137723', '146625', '137197', '133811', '142577', '138349', '145848', '156467', '139420', '145445', '141972', '132617']
Test record ids (last 20): ['151541', '135141', '148664', '151895', '137025', '143410', '132799', '160417', '143342', '157915', '143290', '141428', '147807', '145320', '146007', '136354', '153098', '148397', '138869', '145810']
data_max: tensor([… device='cuda:0')
data_min: tensor([ … device='cuda:0')
time_max: tensor(48., device='cuda:0')
model Model(
  (enc_embedding): DataEmbedding_inverted(
    (value_embedding): Linear(in_features=128, out_features=512, bias=True)
    (dropout): Dropout(p=0.1, inplace=False)
  )
  (encoder): Encoder(
    (attn_layers): ModuleList(
      (0-3): 4 x EncoderLayer(
        (attention): AttentionLayer(
          (inner_attention): FullAttention(
            (dropout): Dropout(p=0.1, inplace=False)
          )
          (query_projection): Linear(in_features=512, out_features=512, bias=True)
          (key_projection): Linear(in_features=512, out_features=512, bias=True)
          (value_projection): Linear(in_features=512, out_features=512, bias=True)
          (out_projection): Linear(in_features=512, out_features=512, bias=True)
        )
        (conv1): Conv1d(512, 512, kernel_size=(1,), stride=(1,))
        (conv2): Conv1d(512, 512, kernel_size=(1,), stride=(1,))
        (norm1): LayerNorm((512,), eps=1e-05, elementwise_affine=True)
        (norm2): LayerNorm((512,), eps=1e-05, elementwise_affine=True)
        (dropout): Dropout(p=0.1, inplace=False)
      )
    )
    (norm): LayerNorm((512,), eps=1e-05, elementwise_affine=True)
  )
  (te_scale): Linear(in_features=1, out_features=1, bias=True)
  (te_periodic): Linear(in_features=1, out_features=511, bias=True)
  (decoder): Sequential(
    (0): Linear(in_features=1024, out_features=512, bias=True)
    (1): ReLU(inplace=True)
    (2): Linear(in_features=512, out_features=512, bias=True)
    (3): ReLU(inplace=True)
    (4): Linear(in_features=512, out_features=1, bias=True)
  )
)
parameters: 7168001
n_train_batches: 225
Traceback (most recent call last):
  File "/home/jiaxihu/bowenzhang/HPG/tPatchGNN/run_iTransformer.py", line 406, in <module>
    train_res["loss"].backward()
  File "/home/jiaxihu/miniconda3/lib/python3.12/site-packages/torch/_tensor.py", line 525, in backward
    torch.autograd.backward(
  File "/home/jiaxihu/miniconda3/lib/python3.12/site-packages/torch/autograd/__init__.py", line 267, in backward
…
Test record ids (first 20): ['141035', '147605', '135375', '161896', '139505', '162915', '146059', '161471', '137723', '146625', '137197', '133811', '142577', '138349', '145848', '156467', '139420', '145445', '141972', '132617']
Test record ids (last 20): ['151541', '135141', '148664', '151895', '137025', '143410', '132799', '160417', '143342', '157915', '143290', '141428', '147807', '145320', '146007', '136354', '153098', '148397', '138869', '145810']
data_max: tensor([… device='cuda:0')
data_min: tensor([ … device='cuda:0')
time_max: tensor(48., device='cuda:0')
model Model(
  (enc_embedding): DataEmbedding_inverted(
    (value_embedding): Linear(in_features=175, out_features=512, bias=True)
    (dropout): Dropout(p=0.1, inplace=False)
  )
  (encoder): Encoder(
    (attn_layers): ModuleList(
      (0-3): 4 x EncoderLayer(
        (attention): AttentionLayer(
          (inner_attention): FullAttention(
            (dropout): Dropout(p=0.1, inplace=False)
          )
          (query_projection): Linear(in_features=512, out_features=512, bias=True)
          (key_projection): Linear(in_features=512, out_features=512, bias=True)
          (value_projection): Linear(in_features=512, out_features=512, bias=True)
          (out_projection): Linear(in_features=512, out_features=512, bias=True)
        )
        (conv1): Conv1d(512, 512, kernel_size=(1,), stride=(1,))
        (conv2): Conv1d(512, 512, kernel_size=(1,), stride=(1,))
        (norm1): LayerNorm((512,), eps=1e-05, elementwise_affine=True)
        (norm2): LayerNorm((512,), eps=1e-05, elementwise_affine=True)
        (dropout): Dropout(p=0.1, inplace=False)
      )
    )
    (norm): LayerNorm((512,), eps=1e-05, elementwise_affine=True)
  )
  (te_scale): Linear(in_features=1, out_features=1, bias=True)
  (te_periodic): Linear(in_features=1, out_features=511, bias=True)
  (decoder): Sequential(
    (0): Linear(in_features=1024, out_features=512, bias=True)
    (1): ReLU(inplace=True)
    (2): Linear(in_features=512, out_features=512, bias=True)
    (3): ReLU(inplace=True)
    (4): Linear(in_features=512, out_features=1, bias=True)
  )
)
parameters: 7192065
n_train_batches: 225
/home/jiaxihu/bowenzhang/HPG/tPatchGNN/run_iTransformer.py
2024-07-19 21:46:56
run_iTransformer.py --history 12 --model iTransformer --dataset physionet --gpu 2
Namespace(state='def', n=100000000, epoch=100, patience=10, history=12, logmode='a', lr=0.001, w_decay=0.0, batch_size=32, viz=False, save='experime
…
Test record ids (first 20): ['141035', '147605', '135375', '161896', '139505', '162915', '146059', '161471', '137723', '146625', '137197', '133811', '142577', '138349', '145848', '156467', '139420', '145445', '141972', '132617']
Test record ids (last 20): ['151541', '135141', '148664', '151895', '137025', '143410', '132799', '160417', '143342', '157915', '143290', '141428', '147807', '145320', '146007', '136354', '153098', '148397', '138869', '145810']
data_max: tensor([… device='cuda:0')
data_min: tensor([ … device='cuda:0')
time_max: tensor(48., device='cuda:0')
model Model(
  (enc_embedding): DataEmbedding_inverted(
    (value_embedding): Linear(in_features=83, out_features=512, bias=True)
    (dropout): Dropout(p=0.1, inplace=False)
  )
  (encoder): Encoder(
    (attn_layers): ModuleList(
      (0-3): 4 x EncoderLayer(
        (attention): AttentionLayer(
          (inner_attention): FullAttention(
            (dropout): Dropout(p=0.1, inplace=False)
          )
          (query_projection): Linear(in_features=512, out_features=512, bias=True)
          (key_projection): Linear(in_features=512, out_features=512, bias=True)
          (value_projection): Linear(in_features=512, out_features=512, bias=True)
          (out_projection): Linear(in_features=512, out_features=512, bias=True)
        )
        (conv1): Conv1d(512, 512, kernel_size=(1,), stride=(1,))
        (conv2): Conv1d(512, 512, kernel_size=(1,), stride=(1,))
        (norm1): LayerNorm((512,), eps=1e-05, elementwise_affine=True)
        (norm2): LayerNorm((512,), eps=1e-05, elementwise_affine=True)
        (dropout): Dropout(p=0.1, inplace=False)
      )
    )
    (norm): LayerNorm((512,), eps=1e-05, elementwise_affine=True)
  )
  (te_scale): Linear(in_features=1, out_features=1, bias=True)
  (te_periodic): Linear(in_features=1, out_features=511, bias=True)
  (decoder): Sequential(
    (0): Linear(in_features=1024, out_features=512, bias=True)
    (1): ReLU(inplace=True)
    (2): Linear(in_features=512, out_features=512, bias=True)
    (3): ReLU(inplace=True)
    (4): Linear(in_features=512, out_features=1, bias=True)
  )
)
parameters: 7144961
n_train_batches: 225
Traceback (most recent call last):
  File "/home/jiaxihu/bowenzhang/HPG/tPatchGNN/run_iTransformer.py", line 406, in <module>
    train_res["loss"].backward()
  File "/home/jiaxihu/miniconda3/lib/python3.12/site-packages/torch/_tensor.py", line 525, in backward
    torch.autograd.backward(
  File "/home/jiaxihu/miniconda3/lib/python3.12/site-packages/torch/autograd/__init__.py", line 267, in backward
…
Couldn't import umap
PID, device: 2185121 cuda:0
Total records: 23457
Dataset n_samples: 23457 14073 4692 4692
Test record ids (first 20): [20539, 3274, 10159, 3501, 7505, 21021, 12964, 12250, 9303, 13430, 247, 8922, 3778, 6354, 9236, 17756, 21529, 17436, 10901, 19808]
Test record ids (last 20): [5183, 5610, 19849, 20653, 16941, 20849, 22721, 18864, 6285, 23347, 42, 14912, 3570, 22992, 17801, 4049, 5466, 795, 396, 18120]
data_max: tensor([… device='cuda:0')
data_min: tensor([… device='cuda:0')
time_max: tensor(47.9833, device='cuda:0')
model Model(
  (enc_embedding): DataEmbedding_inverted(
    (value_embedding): Linear(in_features=280, out_features=512, bias=True)
    (dropout): Dropout(p=0.1, inplace=False)
  )
  (encoder): Encoder(
    (attn_layers): ModuleList(
      (0-3): 4 x EncoderLayer(
        (attention): AttentionLayer(
          (inner_attention): FullAttention(
            (dropout): Dropout(p=0.1, inplace=False)
          )
          (query_projection): Linear(in_features=512, out_features=512, bias=True)
          (key_projection): Linear(in_features=512, out_features=512, bias=True)
          (value_projection): Linear(in_features=512, out_features=512, bias=True)
          (out_projection): Linear(in_features=512, out_features=512, bias=True)
        )
        (conv1): Conv1d(512, 512, kernel_size=(1,), stride=(1,))
        (conv2): Conv1d(512, 512, kernel_size=(1,), stride=(1,))
        (norm1): LayerNorm((512,), eps=1e-05, elementwise_affine=True)
        (norm2): LayerNorm((512,), eps=1e-05, elementwise_affine=True)
        (dropout): Dropout(p=0.1, inplace=False)
      )
    )
    (norm): LayerNorm((512,), eps=1e-05, elementwise_affine=True)
  )
  (te_scale): Linear(in_features=1, out_features=1, bias=True)
  (te_periodic): Linear(in_features=1, out_features=511, bias=True)
  (decoder): Sequential(
    (0): Linear(in_features=1024, out_features=512, bias=True)
    (1): ReLU(inplace=True)
    (2): Linear(in_features=512, out_features=512, bias=True)
    (3): ReLU(inplace=True)
    (4): Linear(in_features=512, out_features=1, bias=True)
  )
)
parameters: 7245825
n_train_batches: 440
/home/jiaxihu/bowenzhang/HPG/tPatchGNN/run_iTransformer.py
2024-07-20 01:31:10
run_iTransformer.py --history 36 --model iTransformer --dataset mimic --gpu 2
Namespace(state='def', n=100000000, epoch=100, patience=10, history=36, logmode='a', lr=0.001, w_decay=0.0, batch_size=32, viz=False, save='experiments/
…
Couldn't import umap
PID, device: 2310886 cuda:0
Total records: 23457
Dataset n_samples: 23457 14073 4692 4692
Test record ids (first 20): [20539, 3274, 10159, 3501, 7505, 21021, 12964, 12250, 9303, 13430, 247, 8922, 3778, 6354, 9236, 17756, 21529, 17436, 10901, 19808]
Test record ids (last 20): [5183, 5610, 19849, 20653, 16941, 20849, 22721, 18864, 6285, 23347, 42, 14912, 3570, 22992, 17801, 4049, 5466, 795, 396, 18120]
data_max: tensor([… device='cuda:0')
data_min: tensor([… device='cuda:0')
time_max: tensor(47.9833, device='cuda:0')
model Model(
  (enc_embedding): DataEmbedding_inverted(
    (value_embedding): Linear(in_features=464, out_features=512, bias=True)
    (dropout): Dropout(p=0.1, inplace=False)
  )
  (encoder): Encoder(
    (attn_layers): ModuleList(
      (0-3): 4 x EncoderLayer(
        (attention): AttentionLayer(
          (inner_attention): FullAttention(
            (dropout): Dropout(p=0.1, inplace=False)
          )
          (query_projection): Linear(in_features=512, out_features=512, bias=True)
          (key_projection): Linear(in_features=512, out_features=512, bias=True)
          (value_projection): Linear(in_features=512, out_features=512, bias=True)
          (out_projection): Linear(in_features=512, out_features=512, bias=True)
        )
        (conv1): Conv1d(512, 512, kernel_size=(1,), stride=(1,))
        (conv2): Conv1d(512, 512, kernel_size=(1,), stride=(1,))
        (norm1): LayerNorm((512,), eps=1e-05, elementwise_affine=True)
        (norm2): LayerNorm((512,), eps=1e-05, elementwise_affine=True)
        (dropout): Dropout(p=0.1, inplace=False)
      )
    )
    (norm): LayerNorm((512,), eps=1e-05, elementwise_affine=True)
  )
  (te_scale): Linear(in_features=1, out_features=1, bias=True)
  (te_periodic): Linear(in_features=1, out_features=511, bias=True)
  (decoder): Sequential(
    (0): Linear(in_features=1024, out_features=512, bias=True)
    (1): ReLU(inplace=True)
    (2): Linear(in_features=512, out_features=512, bias=True)
    (3): ReLU(inplace=True)
    (4): Linear(in_features=512, out_features=1, bias=True)
  )
)
parameters: 7340033
n_train_batches: 440
/home/jiaxihu/bowenzhang/HPG/tPatchGNN/run_iTransformer.py
2024-07-20 03:22:47
run_iTransformer.py --history 12 --model iTransformer --dataset mimic --gpu 2
Namespace(state='def', n=100000000, epoch=100, patience=10, history=12, logmode='a', lr=0.001, w_decay=0.0, batch_size=32, viz=False, save='experiments/
…
Couldn't import umap
PID, device: 2373153 cuda:0
Total records: 23457
Dataset n_samples: 23457 14073 4692 4692
Test record ids (first 20): [20539, 3274, 10159, 3501, 7505, 21021, 12964, 12250, 9303, 13430, 247, 8922, 3778, 6354, 9236, 17756, 21529, 17436, 10901, 19808]
Test record ids (last 20): [5183, 5610, 19849, 20653, 16941, 20849, 22721, 18864, 6285, 23347, 42, 14912, 3570, 22992, 17801, 4049, 5466, 795, 396, 18120]
data_max: tensor([… device='cuda:0')
data_min: tensor([… device='cuda:0')
time_max: tensor(47.9833, device='cuda:0')
model Model(
  (enc_embedding): DataEmbedding_inverted(
    (value_embedding): Linear(in_features=133, out_features=512, bias=True)
    (dropout): Dropout(p=0.1, inplace=False)
  )
  (encoder): Encoder(
    (attn_layers): ModuleList(
      (0-3): 4 x EncoderLayer(
        (attention): AttentionLayer(
          (inner_attention): FullAttention(
            (dropout): Dropout(p=0.1, inplace=False)
          )
          (query_projection): Linear(in_features=512, out_features=512, bias=True)
          (key_projection): Linear(in_features=512, out_features=512, bias=True)
          (value_projection): Linear(in_features=512, out_features=512, bias=True)
          (out_projection): Linear(in_features=512, out_features=512, bias=True)
        )
        (conv1): Conv1d(512, 512, kernel_size=(1,), stride=(1,))
        (conv2): Conv1d(512, 512, kernel_size=(1,), stride=(1,))
        (norm1): LayerNorm((512,), eps=1e-05, elementwise_affine=True)
        (norm2): LayerNorm((512,), eps=1e-05, elementwise_affine=True)
        (dropout): Dropout(p=0.1, inplace=False)
      )
    )
    (norm): LayerNorm((512,), eps=1e-05, elementwise_affine=True)
  )
  (te_scale): Linear(in_features=1, out_features=1, bias=True)
  (te_periodic): Linear(in_features=1, out_features=511, bias=True)
  (decoder): Sequential(
    (0): Linear(in_features=1024, out_features=512, bias=True)
    (1): ReLU(inplace=True)
    (2): Linear(in_features=512, out_features=512, bias=True)
    (3): ReLU(inplace=True)
    (4): Linear(in_features=512, out_features=1, bias=True)
  )
)
parameters: 7170561
n_train_batches: 440
/home/jiaxihu/bowenzhang/HPG/tPatchGNN/run_iTransformer.py
2024-07-20 07:49:13
run_iTransformer.py --history 24 --model iTransformer --dataset ushcn --gpu 2
Namespace(state='def', n=100000000, epoch=100, patience=10, history=24, logmode='a', lr=0.001, w_decay=0.0, batch_size=32, viz=False, save='experiments/
…
Dataset n_samples: 1114 668 223 223
Test record ids (first 20): [886, 101, 1120, 730, 291, 875, 958, 260, 128, 1043, 620, 88, 1005, 872, 617, 538, 508, 44, 273, 817]
Test record ids (last 20): [982, 275, 991, 997, 66, 801, 67, 942, 12, 361, 555, 710, 333, 1017, 851, 184, 882, 509, 726, 587]
data_max: tensor([37.2551, 36.6691, 38.2520,  3.0401,  2.9104], device='cuda:0')
data_min: tensor([-0.3057, -0.1280, -0.1738, -3.8821, -4.1854], device='cuda:0')
time_max: tensor(48., device='cuda:0')
Dataset n_samples after time split: 26736 16032 5352 5352
model Model(
  (enc_embedding): DataEmbedding_inverted(
    (value_embedding): Linear(in_features=205, out_features=512, bias=True)
    (dropout): Dropout(p=0.1, inplace=False)
  )
  (encoder): Encoder(
    (attn_layers): ModuleList(
      (0-3): 4 x EncoderLayer(
        (attention): AttentionLayer(
          (inner_attention): FullAttention(
            (dropout): Dropout(p=0.1, inplace=False)
          )
          (query_projection): Linear(in_features=512, out_features=512, bias=True)
          (key_projection): Linear(in_features=512, out_features=512, bias=True)
          (value_projection): Linear(in_features=512, out_features=512, bias=True)
          (out_projection): Linear(in_features=512, out_features=512, bias=True)
        )
        (conv1): Conv1d(512, 512, kernel_size=(1,), stride=(1,))
        (conv2): Conv1d(512, 512, kernel_size=(1,), stride=(1,))
        (norm1): LayerNorm((512,), eps=1e-05, elementwise_affine=True)
        (norm2): LayerNorm((512,), eps=1e-05, elementwise_affine=True)
        (dropout): Dropout(p=0.1, inplace=False)
      )
    )
    (norm): LayerNorm((512,), eps=1e-05, elementwise_affine=True)
  )
  (te_scale): Linear(in_features=1, out_features=1, bias=True)
  (te_periodic): Linear(in_features=1, out_features=511, bias=True)
  (decoder): Sequential(
    (0): Linear(in_features=1024, out_features=512, bias=True)
    (1): ReLU(inplace=True)
    (2): Linear(in_features=512, out_features=512, bias=True)
    (3): ReLU(inplace=True)
    (4): Linear(in_features=512, out_features=1, bias=True)
  )
)
parameters: 7207425
n_train_batches: 501
