…
Test record ids (first 20): ['141035', '147605', '135375', '161896', '139505', '162915', '146059', '161471', '137723', '146625', '137197', '133811', '142577', '138349', '145848', '156467', '139420', '145445', '141972', '132617']
Test record ids (last 20): ['151541', '135141', '148664', '151895', '137025', '143410', '132799', '160417', '143342', '157915', '143290', '141428', '147807', '145320', '146007', '136354', '153098', '148397', '138869', '145810']
data_max: tensor([… device='cuda:0')
data_min: tensor([ … device='cuda:0')
time_max: tensor(48., device='cuda:0')
model Model(
  (patch_embedding): PatchEmbedding(
    (padding_patch_layer): ReplicationPad1d((0, 8))
    (value_embedding): Linear(in_features=16, out_features=64, bias=False)
    (position_embedding): PositionalEmbedding()
    (dropout): Dropout(p=0.1, inplace=False)
  )
  (encoder): Encoder(
    (attn_layers): ModuleList(
      (0-1): 2 x EncoderLayer(
        (attention): AttentionLayer(
          (inner_attention): FullAttention(
            (dropout): Dropout(p=0.1, inplace=False)
          )
          (query_projection): Linear(in_features=64, out_features=64, bias=True)
          (key_projection): Linear(in_features=64, out_features=64, bias=True)
          (value_projection): Linear(in_features=64, out_features=64, bias=True)
          (out_projection): Linear(in_features=64, out_features=64, bias=True)
        )
        (conv1): Conv1d(64, 64, kernel_size=(1,), stride=(1,))
        (conv2): Conv1d(64, 64, kernel_size=(1,), stride=(1,))
        (norm1): LayerNorm((64,), eps=1e-05, elementwise_affine=True)
        (norm2): LayerNorm((64,), eps=1e-05, elementwise_affine=True)
        (dropout): Dropout(p=0.1, inplace=False)
      )
    )
    (norm): Sequential(
      (0): Transpose()
      (1): BatchNorm1d(64, eps=1e-05, momentum=0.1, affine=True, track_running_stats=True)
      (2): Transpose()
    )
  )
  (te_scale): Linear(in_features=1, out_features=1, bias=True)
  (te_periodic): Linear(in_features=1, out_features=63, bias=True)
  (decoder): Sequential(
    (0): Linear(in_features=128, out_features=64, bias=True)
    (1): ReLU(inplace=True)
    (2): Linear(in_features=64, out_features=64, bias=True)
    (3): ReLU(inplace=True)
    (4): Linear(in_features=64, out_features=1, bias=True)
  )
)
parameters: 64193
n_train_batches: 225
/home/jiaxihu/bowenzhang/HPG/tPatchGNN/run_baselines.py
2024-07-19 11:07:34
run_baselines.py --history 36 --model PatchTST --dataset physionet
Namespace(state='def', n=100000000, epoch=100, patience=10, history=36, logmode='a', lr=0.001, w_decay=0.0, batch_size=32, viz=False, save='experiments/', load=None, see
…
